…
    "papermill": {
     "duration": 2.326789,
     "end_time": "2024-05-03T09:17:31.825244",
     "exception": false,
     "start_time": "2024-05-03T09:17:29.498455",
     "status": "completed"
    },
    "tags": []
   },
   "outputs": [
    {
     "name": "stdout",
     "output_type": "stream",
     "text": [
      "Model: \"sequential\"\n",
      "_________________________________________________________________\n",
      "Layer (type)                 Output Shape              Param #   \n",
      "=================================================================\n",
      "conv2d (Conv2D)              (None, 128, 128, 32)      416       \n",
      "_________________________________________________________________\n",
      "conv2d_1 (Conv2D)            (None, 128, 128, 32)      4128      \n",
      "_________________________________________________________________\n",
      "batch_normalization (BatchNo (None, 128, 128, 32)      128       \n",
      "_________________________________________________________________\n",
      "max_pooling2d (MaxPooling2D) (None, 64, 64, 32)        0         \n",
      "_________________________________________________________________\n",
      "dropout (Dropout)            (None, 64, 64, 32)        0         \n",
      "_________________________________________________________________\n",
      "conv2d_2 (Conv2D)            (None, 64, 64, 64)        8256      \n",
      "_________________________________________________________________\n",
      "conv2d_3 (Conv2D)            (None, 64, 64, 64)        16448     \n",
      "_________________________________________________________________\n",
      "batch_normalization_1 (Batch (None, 64, 64, 64)        256       \n",
      "_________________________________________________________________\n",
      "max_pooling2d_1 (MaxPooling2 (None, 32, 32, 64)        0         \n",
      "_________________________________________________________________\n",
      "dropout_1 (Dropout)          (None, 32, 32, 64)        0         \n",
      "_________________________________________________________________\n",
      "flatten (Flatten)            (None, 65536)             0         \n",
      "_________________________________________________________________\n",
      "dense (Dense)                (None, 512)               33554944  \n",
      "_________________________________________________________________\n",
      "dropout_2 (Dropout)          (None, 512)               0         \n",
      "_________________________________________________________________\n",
      "dense_1 (Dense)              (None, 2)                 1026      \n",
      "=================================================================\n",
      "Total params: 33,585,602\n",
      "Trainable params: 33,585,410\n",
      "Non-trainable params: 192\n",
      "_________________________________________________________________\n",
      "None\n"
     ]
    }
   ],
   "source": [
    "model = Sequential()\n",
    "\n",
    "model.add(Conv2D(32, kernel_size=(2, 2), input_shape=(128, 128, 3), padding = 'Same'))\n",
…
